micro_ep_2.pt (torch, 213994 bytes, 2 tensors)

weight f4 [23, 2300]
-6.8573647 0.0044293106 0.016323436 -0.0018600263 0.0059504453 0.019126523 -0.013508552 0.002792785
0.006581463 -0.013678275 0.009494267 -0.0058535924 -0.0077344486 -0.01747441 -0.011225271 0.01753031
-0.018502895 -0.0031794496 0.01741128 0.0036224294 -0.00028228015 -0.0020110607 0.013775557 -6.8752675
0.007389294 -0.010767783 0.010244459 0.0045197997 -0.016908027 0.007678844 0.018071126 -0.015870592
0.0056134835 -0.020209242 0.0073382687 -0.0065442454 0.018355533 -0.008483602 -0.004051205 -0.010447219
0.01498333 0.0068285055 0.01882289 0.00758934 0.012381148 0.007857945 -6.8619394 0.0046315324
-0.00085815974 0.007872583 0.0026524868 -0.008800599 0.017947055 0.01400933 0.0054677557 -0.0018082168
-0.01906006 -0.0066221496 -0.009836581 0.01249963 0.002840696 0.0136159025 0.0006600432 0.0033218153
-0.013424441 0.017893482 -0.002151532 0.000665253 -0.0010783449 -6.863377 0.003968872 0.0073464066
-0.0075774705 0.01285433 -0.013719308 0.01998116 -0.00025640056 -0.012593589 -0.018389737 0.010491937
0.015541695 -0.014641929 -0.009914947 -0.0038992632 -0.014891157 0.0203227 0.012628511 0.008172307
0.013872579 0.0042939093 -0.015766228 -0.007713693 -6.880727 -0.010758715 -0.008196779 -0.0146618355
-0.019569296 -0.0125063285 0.0014122892 0.012934107 -0.012871232 -0.020806706 -0.005826653 -0.0024597328
-0.01545364 -0.015241318 0.005587805 0.008754656 0.0050230417 -0.00912779 -0.01181334 0.019088626
0.004294429 -0.0042396244 -0.0028716773 -6.856355 0.018045299 -0.0015026238 -0.013113589 -0.004527895
0.011923324 -0.010733926 0.014588978 -0.007668511 -0.011705545 -0.001291912 -0.013448505 0.0040525105
0.0025098287 -0.0071598077 -0.0059919013 0.00028447434 0.0018422287 -0.0092983795 -0.016053302 -0.01856747
0.0031999815 -0.017198857 -6.880637 -0.0009629503 -0.012399994 -0.012104923 0.007769868 -0.016879423
-0.015196169 -0.020148594 -0.013378849 0.009001609 0.0071512796 -0.004577726 -0.01482734 -0.011632384
-0.011590182 -0.011587175 0.011072252 -0.0048704986 0.011583619 -0.0038809031 -0.0039203987 -0.004842015
-0.00787711 -6.857891 -0.020836012 0.012726296 -0.013505646 0.009509109 0.0070003867 0.009920793
-0.0010546744 0.005975837 -0.008993836 -0.0008628592 -0.002817519 0.017895773 0.008136058 0.0047459714
0.004548762 0.0023491643 0.0018543173 0.012133937 0.008552287 0.0002450738 -0.006018483 0.013266768
-6.8704734 0.011730507 0.0005336087 0.007086577 -0.0030773133 -0.019287705 0.013041068 -0.010591053
0.019288652 -0.0048432685 1.4998019e-05 -0.0005881563 -0.0118826525 -0.020507107 0.011245269 -0.005801635
-0.010237432 -0.019047856 -0.0028739367 0.0050357208 0.013020661 -0.018900182 0.0063753203 -6.8553114
-0.0047104154 -0.004215477 -0.004879236 0.014654439 0.006827347 -0.0052134246 -0.0054350384 0.0059585087
0.0010694489 -0.019401662 -0.02008158 -0.0120711 0.0078093186 0.0025414042 0.0049752444 -0.0022516754
0.015412062 0.008136829 -2.4359673e-05 -0.017339073 -0.0044174474 0.011775546 -6.8584337 0.020537097
0.016620863 -0.012709171 -0.007351542 0.01760089 0.001915317 -0.010112241 -0.008777709 -0.007124616
0.018083375 0.0006518457 0.018409189 0.009826275 0.0013318546 0.009596216 0.0007191133 0.020819478
-0.0117936125 0.0020534303 0.0030362327 0.006072495 -0.010032749 -6.8425674 0.0017022472 0.009305308
00000000: 886f dbc0 c023 913b bab8 853c 20cc f3ba
00000010: f4fb c23b 3aaf 9c3c f952 5dbc 2807 373b
00000020: 50a9 d73b d81a 60bc d88d 1b3c 7ecf bfbb
00000030: 4271 fdbb 7e26 8fbc 33ea 37bc ba9b 8f3c
00000040: 6293 97bc 505e 50bb 1aa2 8e3c 4866 6d3b
00000050: 00ff 93b9 00cc 03bb e0b2 613c 3102 dcc0
00000060: e421 f23b 5b6b 30bc 60d8 273c d41a 943b
00000070: b482 8abc d09e fb3b e609 943c 0b03 82bc
00000080: 50f1 b73b da8d a5bc dc75 f03b 1c71 d6bb
00000090: 585e 963c cefe 0abc f8bf 84bb d02a 2bbc
000000a0: a47c 753c a8c1 df3b 7632 9a3c 00b0 f83b
000000b0: 4cda 4a3c 9cbe 003c 0295 dbc0 1cc4 973b
000000c0: 20f6 60ba 02fc 003c 58d5 2d3b 6330 10bc
000000d0: b405 933c 6487 653c dc2a b33b b001 edba
000000e0: d823 9cbc 9efe d8bb 9c29 21bc 40cb 4c3c
000000f0: f82a 3a3b 3c15 5f3c c006 2d3a d0b2 593b
00000100: 30f2 5bbc 5a95 923c b800 0dbb 6064 2e3a
00000110: 4057 8dba c9a0 dbc0 500d 823b 20ba f03b
00000120: 6e4c f8bb f89a 523c f3c6 60bc 88af a33c
00000130: 806d 86b9 5755 4ebc 13a6 96bc 60e6 2b3c
00000140: 98a2 7e3c b4e4 6fbc 4d72 22bc c88a 7fbb
00000150: 0afa 73bc ca7b a63c d0e7 4e3c 24e5 053c
00000160: d049 633c ecb3 8c3b 2d28 81bc 26c3 fcbb
00000170: ea2e dcc0 5245 30bc c84b 06bc 3238 70bc
00000180: ca4f a0bc 58e7 4cbc 901c b93a 94e9 533c
00000190: dce1 52bc d372 aabc 82ed bebb 7833 21bb
000001a0: 4431 7dbc b9b6 79bc e819 b73b b06f 0f3c
000001b0: 5498 a43b ba8c 15bc bd8c 41bc c05f 9c3c
000001c0: 48b8 8c3b 8cec 8abb c032 3cbb 4367 dbc0
000001d0: bcd3 933c b0f3 c4ba 61da 56bc bc5e 94bb
000001e0: 0c5a 433c 59dd 2fbc 9c06 6f3c 2248 fbbb
000001f0: 9dc8 3fbc 6055 a9ba 1e57 5cbc ecca 843b
00000200: f07b 243b d29c eabb b657 c4bb 8025 9539
00000210: f076 f13a 3b58 18bc 3782 83bc cf1a 98bc
00000220: c8b6 513b 9ee4 8cbc 2e2e dcc0 806e 7cba
00000230: 5829 4bbc ba53 46bc 609a fe3b b746 8abc
00000240: 5af9 78bc aa0e a5bc f632 5bbc 7c7b 133c
00000250: 4855 ea3b c000 96bb 5fee 72bc c195 3ebc
00000260: bfe4 3dbc 22d8 3dbc 6468 353c b498 9fbb
00000270: 38c9 3d3c c056 7ebb b076 80bb c4a9 9ebb
00000280: fe0e 01bc d873 dbc0 49b0 aabc f481 503c
00000290: c946 5dbc 18cc 1b3c 8063 e53b d28a 223c
000002a0: 003d 8aba f4d0 c33b e25a 13bc 8031 62ba
000002b0: 20a6 38bb 289a 923c 1a4d 053c 1884 9b3b
000002c0: c80d 953b 70f4 193b 900c f33a 6ccd 463c
000002d0: e41e 0c3c 407d 8039 b236 c5bb dc5c 593c
000002e0: ebda dbc0 5031 403c e0e1 0b3a 8436 e83b
000002f0: c0ac 49bb 4001 9ebc 34aa 553c 1986 2dbc
00000300: 3c03 9e3c 48b4 9ebb 00a0 7b37 802e 1aba
00000310: 75af 42bc 85fe a7bc 143e 383c a41b bebb
00000320: e7ba 27bc 400a 9cbc a858 3cbb b002 a53b
00000330: 9c54 553c 8ed4 9abc 10e8 d03b b65e dbc0
00000340: d459 9abb fc21 8abb 00e2 9fbb 2c19 703c
00000350: f0b7 df3b 60d5 aabb 6818 b2bb 983f c33b
00000360: c02c 8c3a 3cf0 9ebc 2082 a4bc ddc5 45bc
00000370: 50e5 ff3b b08d 263b 6007 a33b d890 13bb
00000380: e082 7c3c 5650 053c 0058 ccb7 ac0a 8ebc
00000390: 3cc0 90bb 38ee 403c 4a78 dbc0 6a3d a83c
000003a0: 7a28 883c 203a 50bc 34e5 f0bb be2f 903c
000003b0: 600b fb3a d0ad 25bc 61d0 0fbc 9c75 e9bb
000003c0: 9623 943c a0e0 2a3a dece 963c 62fe 203c
000003d0: a091 ae3a 7239 1d3c e082 3c3a 9c8d aa3c
000003e0: ff39 41bc d892 063b 88fb 463b c8fb c63b
000003f0: 6660 24bc 50f6 dac0 f01d df3a 4a75 183c

bias f4 [23]
-6.869331 -0.6508294 0.8873795 0.9181905 0.16107601 0.71913147 -0.6831004 1.1068534
0.6565019 0.068573974 -1.0741076 1.2861406 1.0214351 -0.742253 0.58110577 -0.8805326
-1.0205204 0.24794592 0.35299197 1.309656 -0.24234775 1.1982675 -1.0650251
00000000: 8fd1 dbc0 c19c 26bf 4e2b 633f 880e 6b3f
00000010: 1cf1 243e 0019 383f abdf 2ebf 5fad 8d3f
00000020: 8210 283f 8370 8c3d 5c7c 89bf 41a0 a43f
00000030: 63be 823f 4b04 3ebf 59c3 143f 966a 61bf
00000040: 6aa0 82bf 89e5 7d3e 5dbb b43e cfa2 a73f
00000050: 022a 78be d460 993f be52 88bf
