micro_0.pt (torch, 213976 bytes, 2 tensors)

weight f4 [23, 2300]
-2.73361 0.00823742 0.0011781845 -0.012598264 -0.014897894 -0.014771094 0.006169932 -0.008224099
0.016658045 -0.0050222557 -0.01486956 0.004850013 -0.017748361 -0.0067323344 -0.0068771336 0.019198928
0.0139751285 -0.017044224 -0.013550694 -0.007575293 -0.016189339 -0.014410133 -0.0011207983 -2.7722952
0.020812485 0.011195887 -0.002378622 0.0073097516 -0.009365782 0.007074857 -0.010322825 -0.013346221
0.0096105095 0.01927552 -0.0053501595 0.0159434 0.0097617265 0.015066136 -0.017519409 -0.016893944
0.009815028 0.018318638 0.0068027787 0.0168996 -0.010976258 0.0076482967 -2.7729309 -0.006425783
-0.020377448 -0.015165465 -0.010230417 -0.01424046 -0.004548667 -0.002834404 -0.0198446 -0.02015863
-0.0019397475 -0.019195365 0.016460605 -0.00021298416 -0.011201853 -0.0070991796 -0.0006996263 0.010861989
0.010438614 0.020789284 -0.0044807903 -0.0069717066 -0.01834529 -2.736072 0.008244257 -0.010469014
0.008502364 -0.009044223 -0.005554582 -0.009240742 -0.01829488 0.015889514 0.005796997 -0.0071116183
0.016679004 -0.015486494 -0.00824528 0.004018521 0.009642797 0.008458251 -0.019924864 -0.0050608385
0.0067874156 0.016117357 -0.0013364907 -0.00452045 -2.7731829 -0.013653159 0.003412623 0.010277452
-0.01739043 -0.014907665 0.019091379 0.006094968 -0.003339488 0.02014197 0.012925796 0.004936686
-0.01245126 0.013234228 0.017193455 -0.009413785 0.015162982 -0.015887326 0.0059453435 -0.0026387274
0.0046628285 -0.0053198636 -0.014841784 -2.739072 -0.0021312162 0.0016236044 0.006133754 0.0067851655
0.010343479 -0.006948744 0.01934662 -0.0156101845 0.0014848895 0.018828176 0.00039859116 -0.0054391325
0.0014457274 -0.011817406 -0.009286344 0.010710161 -0.0026974343 -0.011301695 -0.00595052 -0.010107985
-0.00055024587 0.01549105 -2.7337956 0.0010426659 -0.009646861 0.017501406 -0.020362794 -0.0034842752
0.008964671 0.00475003 0.0044979844 -0.005708551 -0.01742068 0.0017435588 0.013237875 0.0064565763
-0.005362618 -0.0008493122 0.0065642353 -0.018723652 0.004549928 -0.002761295 0.013210472 -0.019625647
0.019148406 -2.7332935 -0.0009220056 -0.014383893 -0.016331451 -0.00033026747 -0.0128683485 -0.007879613
0.020318404 -0.013001343 0.007880535 -0.01996246 -0.019318776 -0.00027959235 0.012173437 0.0022126157
0.0027225856 -0.0142964125 0.013627056 -0.016079755 -0.018931817 0.0105083585 0.009789107 0.018550172
-2.7604296 0.019894857 0.007084243 -0.019462569 0.006388819 0.005452225 0.0037940908 0.020312425
-0.019691147 -0.018018123 -0.005761183 0.001633985 0.014056049 -0.012196995 0.012224685 0.0035526454
0.0021214783 0.017398044 0.0017971676 -0.011110069 0.0119594075 -0.004536424 0.0028636716 -2.7570014
-0.009475374 -0.011410835 0.011339694 -0.010475297 -0.006258782 -0.005872921 0.015693955 -0.0028304905
-0.020125993 0.020357482 -0.014766632 -0.010537104 -0.018393934 0.013500903 -0.0095286835 0.0030856598
-0.020140741 -0.001442058 0.020474125 -0.008649119 -0.01685569 -0.01753083 -2.767444 0.015404277
-0.018956147 -0.0143546425 0.011271991 0.014213685 0.009326128 0.018935021 0.0003414061 -0.0001751855
0.009330487 0.017893597 0.01814581 -0.009756055 0.002774585 -0.011636672 -0.0019863956 0.012221139
-0.001068512 -0.011781346 0.010309445 -0.01648561 0.0067205206 -2.7507117 0.0056032613 0.013009448
00000000: 77f3 2ec0 3ef6 063c 506d 9a3a f368 4ebc
00000010: 4c16 74bc 7502 72bc 242d ca3b 5fbe 06bc
00000020: 7476 883c bc91 a4bb 749f 73bc dcec 9e3b
00000030: 0365 91bc ea9a dcbb 9459 e1bb 1247 9d3c
00000040: f0f7 643c 54a0 8bbc bb03 5ebc 2a3a f8bb
00000050: 819f 84bc 7a18 6cbc c0e7 92ba 496d 31c0
00000060: f27e aa3c f46e 373c a8e2 1bbb a486 ef3b
00000070: f072 19bc 34d4 e73b 1121 29bc 1caa 5abc
00000080: 6675 1d3c b2e7 9d3c 6450 afbb bc9b 823c
00000090: a6ef 1f3c f4d7 763c dd84 8fbc 2b65 8abc
000000a0: 36cf 203c f810 963c d8e9 de3b 0871 8a3c
000000b0: c3d5 33bc 909e fa3b b377 31c0 608f d2bb
000000c0: 9bee a6bc 9278 78bc 7b9d 27bc d150 69bc
000000d0: fc0c 95bb 68c1 39bb 2591 a2bc b623 a5bc
000000e0: 203f feba 993f 9dbc 64d8 863c 8054 5fb9
000000f0: fa87 37bc 3ca0 e8bb 2067 37ba 7cf6 313c
00000100: b806 2b3c 4a4e aa3c 98d3 92bb ea72 e4bb
00000110: dd48 96bc ce1b 2fc0 ec12 073c 3a86 2bbc
00000120: 804d 0b3c 392e 14bc 3603 b6bb 7b66 17bc
00000130: 25df 95bc ba2a 823c bcf4 bd3b 9408 e9bb
00000140: 68a2 883c 10bb 7dbc 3617 07bc ccad 833b
00000150: d2fc 1d3c 7a94 0a3c 7839 a3bc 64d5 a5bb
00000160: f868 de3b 8c08 843c 302d afba 4820 94bb
00000170: d47b 31c0 80b1 5fbc 50a6 5f3b c262 283c
00000180: 6076 8ebc 473f 74bc 8665 9c3c 4cb8 c73b
00000190: 50db 5abb c600 a53c b8c6 533c ecc3 a13b
000001a0: 5f00 4cbc 60d4 583c 4ad9 8c3c 473c 1abc
000001b0: 286e 783c 2326 82bc 28d1 c23b 80ee 2cbb
000001c0: a4ca 983b 4052 aebb f42a 73bc f54c 2fc0
000001d0: e0ab 0bbb 20cf d43a a8fd c83b 1856 de3b
000001e0: b277 293c 4ab2 e3bb ce7c 9e3c dcc1 7fbc
000001f0: a0a0 c23a 8c3d 9a3c 00fa d039 c03a b2bb
00000200: 907e bd3a cb9d 41bc c025 18bc ac79 2f3c
00000210: 70c7 30bb bf2a 39bc 94fc c2bb f69b 25bc
00000220: 603e 10ba 2cce 7d3c 82f6 2ec0 10aa 883a
00000230: de0d 1ebc 1c5f 8f3c e0cf a6bc 7058 64bb
00000240: 8ee0 123c 24a6 9b3b d463 933b cc0e bbbb
00000250: d0b5 8ebc 2088 e43a ace3 583c b091 d33b
00000260: e6b8 afbb 60a4 5eba cc18 d73b 5862 99bc
00000270: 9017 953b d8f6 34bb bc70 583c f7c5 a0bc
00000280: 1edd 9c3c 48ee 2ec0 c0b2 71ba 6caa 6bbc
00000290: 89c9 85bc c027 adb9 c4d5 52bc 7e19 01bc
000002a0: c872 a63c 9603 55bc 5c1d 013c 5088 a3bc
000002b0: 6942 9ebc 4096 92b9 1873 473c 8801 113b
000002c0: 686d 323b 803b 6abc 0444 5f3c b1b9 83bc
000002d0: e616 9bbc 402b 2c3c 7e62 203c 88f6 973c
000002e0: e1aa 30c0 8afa a23c f022 e83b f76f 9fbc
000002f0: 4c59 d13b 94a8 b23b 48a6 783b 3e66 a63c
00000300: 544f a1bc be9a 93bc 4ec8 bcbb 702b d63a
00000310: 584b 663c e8d5 47bc 0c4a 483c 80d3 683b
00000320: 8008 0b3b 5886 8e3c f08e eb3a 0207 36bc
00000330: 64f1 433c 48a6 94bb 70ac 3b3b b672 30c0
00000340: 993e 1bbc 83f4 3abc 20ca 393c 95a0 2bbc
00000350: 7816 cdbb a271 c0bb 9c90 803c c07f 39bb
00000360: 44df a4bc bcc4 a63c beef 71bc d1a3 2cbc
00000370: e0ae 96bc e432 5d3c 321e 1cbc c838 4a3b
00000380: 32fe a4bc 7003 bdba 5ab9 a73c 09b5 0dbc
00000390: f214 8abc d19c 8fbc cd1d 31c0 3862 7c3c
000003a0: ec49 9bbc bc2f 6bbc 28ae 383c 84e0 683c
000003b0: 9ecc 183c 9e1d 9b3c c0fe b239 00b2 37b9
000003c0: e6de 183c 9895 923c 86a6 943c dcd7 1fbc
000003d0: d0d5 353b bda7 3ebc 302e 02bb 2c3b 483c
000003e0: 500d 8cba 8c06 41bc f2e8 283c d40c 87bc
000003f0: d037 dc3b a90b 30c0 909b b73b 9425 553c

bias f4 [23]
-2.7559586 -0.29143327 0.28255337 0.39825073 0.055141214 0.21445397 -0.30084878 0.4044111
0.2532232 0.02821141 -0.4392768 0.5189179 0.37665895 -0.32649422 0.15518045 -0.36644232
-0.39164343 0.023234418 0.08336304 0.4836009 0.56707025 0.5662996 -0.4459169
00000000: a061 30c0 be36 95be d6aa 903e 85e7 cb3e
00000010: c1db 613d d299 5b3e da08 9abe f90e cf3e
00000020: 79a6 813e 9d1b e73c e4e8 e0be ced7 043f
00000030: 71d9 c03e 402a a7be a0e7 1e3e 549e bbbe
00000040: 7d85 c8be 1b56 be3c 3eba aa3d 8a9a f73e
00000050: 842b 113f 03f9 103f 384f e4be
