model_0.pt (torch, 213976 bytes, 2 tensors)

weight f4 [23, 2300]
-2.7836385 -0.017131587 -0.007995034 0.014198877 -0.009762895 -0.012989357 0.012239157 -0.004820052
0.017587546 -0.0047588223 -0.01777467 0.0067167496 0.009089721 -0.016587676 -0.003400025 -0.015794525
-0.0054806853 -0.018740594 -0.00758666 0.007435806 0.015607969 0.008481567 -0.0017957486 -2.7548127
0.009656617 -0.01093893 0.017368648 0.015391749 -0.020647408 -0.015155194 -0.0010677038 0.010078545
0.0029347842 -0.000927198 -0.0029215629 -0.011818594 -0.0033882428 -0.01709293 0.011985555 -0.015857354
-0.0035355818 0.0057315235 0.011360957 -0.0023900785 -0.010512866 -0.0008562366 -2.7728238 0.004800843
-0.00032622134 0.0048993803 -0.008097036 -0.0076602786 0.008747177 0.006930163 -0.007297095 -0.0028832161
-0.0014689432 -0.011307895 -0.019236103 0.002183978 0.0013072642 -0.019050583 -0.013962179 0.008124328
0.012039333 0.0095753 -0.008578339 0.00040061295 -0.0032264867 -2.785789 0.0066748112 0.0072806124
0.0041558947 0.009975908 0.017396163 0.018469557 -0.019650865 0.018231409 0.00781641 0.007354999
-0.016765248 0.013991245 -0.0018605976 -0.00010888048 0.015408923 0.009051668 -0.0023686022 0.01916375
0.019653788 0.01283041 -0.018228779 -0.016991785 -2.765286 0.005852959 0.018393818 -0.00083845155
-0.015271902 0.016856987 -0.0062986077 0.01729928 0.011975277 0.014009579 -0.0037072706 -0.011314828
0.007965874 0.008508743 -0.016186913 -0.010534703 -0.013349609 0.016908746 -0.005586998 -0.01661407
-0.0029321667 0.006016599 -0.005236231 -2.7787457 0.009064962 0.013869188 0.008629032 -0.015974585
0.006926392 0.00660386 0.014135335 -0.017580293 0.0044273017 -0.012035189 -0.017390572 -0.009319888
-0.016515633 0.012176458 0.016145749 -0.005604209 0.017324947 -0.000145082 0.007299996 0.0067382036
-0.019740714 0.015578481 -2.7906437 -0.018080704 -0.014673665 -0.009878735 0.020690376 -0.017602278
-0.00877347 0.014293608 0.00478356 0.00492161 0.019516086 0.010519364 0.014737144 -0.005941877
-0.01866993 0.0047650365 -0.017260587 -0.012058706 0.01312647 0.0057163406 -0.005978282 0.0095230285
-0.006783458 -2.7812762 0.004324369 0.002308886 -0.014433192 0.005185784 0.008009105 0.019129505
-4.866972e-06 -0.008952959 -0.0009834042 -0.016234297 -0.013525167 0.018198881 0.0050355787 0.006313723
-0.014392295 0.013977802 -0.016726376 -0.014232078 0.0074751917 -0.017131045 0.014783406 -0.01135388
-2.7536154 0.012110434 0.0017643321 -0.015163812 0.0015198749 -0.010406153 8.018821e-06 0.009814903
-0.017582182 -0.019841956 0.01215443 -0.0075727627 0.010745549 -0.01970796 -0.015848469 -0.009108195
-0.0050773183 -0.0078099216 0.019579168 -0.013021743 -0.016390968 0.0009167084 0.00869975 -2.7714267
-0.01828805 0.004975641 -0.01044759 0.014051336 -0.006045122 0.009083786 -0.013776275 0.017099438
0.0008207957 0.020255521 -0.0035610974 -0.0013645792 0.01711832 0.00775514 -0.0035542666 0.017720394
-0.013006453 0.0044360165 0.0033629583 0.0025451058 0.006831752 0.0026310608 -2.762282 0.002508974
-0.007980224 0.018632572 0.010312636 0.019371662 0.01914726 -0.0069069467 0.0052945223 -0.0141144125
0.013838942 0.01139131 -0.0010594663 0.015760118 0.0043075634 0.011267881 -0.020033902 0.019230803
-0.0030064613 -0.017435158 0.008208464 0.00076365477 0.0016536668 -2.7765536 0.009652315 -0.0018436528
00000000: 2227 32c0 8b57 8cbc 9afd 02bc 68a2 683c
00000010: 8df4 1fbc 50d1 54bc bf86 483c 87f1 9dbb
00000020: c213 903c e5ef 9bbb 2f9c 91bc 2e18 dc3b
00000030: 0eed 143c e1e2 87bc f4d2 5ebb 8563 81bc
00000040: 5297 b3bb e085 99bc 8499 f8bb 10a8 f33b
00000050: 91b8 7f3c 45f6 0a3c 535f ebba da4e 30c0
00000060: ca36 1e3c 3339 33bc b248 8e3c ad2d 7c3c
00000070: c124 a9bc 7e4d 78bc 32f2 8bba 7b20 253c
00000080: 8255 403b 340f 73ba b177 3fbb c7a2 41bc
00000090: 480d 5ebb 7906 8cbc 105f 443c 48e7 81bc
000000a0: 38b5 67bb 81cf bb3b 4f23 3a3c dda2 1cbb
000000b0: 283e 2cbc 1175 60ba f275 31c0 6450 9d3b
000000c0: b008 abb9 fb8a a03b 6ea9 04bc 1303 fbbb
000000d0: 5250 0f3c 6c16 e33b 781c efbb 57f4 3cbb
000000e0: 8e89 c0ba c044 39bc 0895 9dbc 1221 0f3b
000000f0: 8258 ab3a f80f 9cbc a0c1 64bc e71b 053c
00000100: 9f40 453c b8e1 1c3c 298c 0cbc 5c09 d239
00000110: 7773 53bb 5e4a 32c0 60b8 da3b 3492 ee3b
00000120: 2c2e 883b fe71 233c 6682 8e3c 784d 973c
00000130: dafa a0bc 095a 953c 6610 003c 3402 f13b
00000140: 4657 89bc 893b 653c 4cdf f3ba c356 e4b8
00000150: b575 7c3c 734d 143c 8d3a 1bbb 4cfd 9c3c
00000160: fb00 a13c a436 523c 8554 95bc 5b32 8bbc
00000170: 72fa 30c0 2eca bf3b a2ae 963c 88cb 5bba
00000180: 0037 7abc aa17 8a3c 8d64 cebb 38b7 8d3c
00000190: f433 443c 6f88 653c aef5 72bb d461 39bc
000001a0: 4c83 023c 4168 0b3c 6b9a 84bc bf99 2cbc
000001b0: 52b8 5abc 3684 8a3c 2313 b7bb 3b1a 88bc
000001c0: 9829 40bb e426 c53b b094 abbb f8d6 31c0
000001d0: 3585 143c 973b 633c c960 0d3c 22dd 82bc
000001e0: caf6 e23b 3165 d83b e497 673c 8c04 90bc
000001f0: e612 913b 3e2f 45bc ac76 8ebc 72b2 18bc
00000200: cb4b 87bc c47f 473c 1744 843c 83a3 b7bb
00000210: 0ced 8d3c 2721 18b9 ce34 ef3b 26cc dc3b
00000220: 47b7 a1bc e33c 7f3c e899 32c0 fc1d 94bc
00000230: d069 70bc 6bda 21bc dd7e a93c a732 90bc
00000240: 9abe 0fbc bd2f 6a3c 69bf 9c3b 7545 a13b
00000250: 33e0 9f3c 6959 2c3c 1074 713c 14b4 c2bb
00000260: aef1 98bc 0624 9c3b 1366 8dbc e191 45bc
00000270: 6810 573c 2450 bb3b 77e5 c3bb 7a06 1c3c
00000280: c547 debb 6e00 32c0 70b3 8d3b ae50 173b
00000290: 3279 6cbc 82ed a93b 9f38 033c 7bb5 9c3c
000002a0: f94e a3b6 6faf 12bc 92e5 80ba cafd 84bc
000002b0: a998 5dbc d215 953c 7f01 a53b 59e3 ce3b
000002c0: a9cd 6bbc 2703 653c c105 89bc a92d 69bc
000002d0: 74f2 f43b 6856 8cbc 1936 723c a005 3abc
000002e0: 3c3b 30c0 d76a 463c 2941 e73a a371 78bc
000002f0: 8a36 c73a 927e 2abc 9388 0637 b0ce 203c
00000300: 8208 90bc 998b a2bc 6023 473c f024 f8bb
00000310: 190e 303c 9672 a1bc a6d4 81bc 8a3a 15bc
00000320: a25f a6bb 5fea ffbb 7e64 a03c 2659 55bc
00000330: 5a46 86bc 424f 703a 6589 0e3c 0e5f 31c0
00000340: d2d0 95bc b40a a33b 5e2c 2bbc 9337 663c
00000350: 2916 c6bb 29d4 143c e3b5 61bc 1f14 8c3c
00000360: ab2a 573a e8ee a53c 4d61 69bb aedb b2ba
00000370: b83b 8c3c d41e fe3b b3ee 68bb 5c2a 913c
00000380: 0519 55bc 015c 913b 1465 5c3b cacb 263b
00000390: e4dc df3b e06d 2c3b 3ac9 30c0 996d 243b
000003a0: 7cbf 02bc 56a3 983c 55f6 283c 52b1 9e3c
000003b0: b7da 9c3c ab53 e2bb ac7d ad3b 2340 67bc
000003c0: bbbc 623c 9ea2 3a3c cadd 8aba 5d1b 813c
000003d0: 7626 8d3b eb9c 383c 231e a4bc eb89 9d3c
000003e0: 0d08 45bb 2dd4 8ebc cb7c 063c 0130 483a
000003f0: dabf d83a 0eb3 31c0 be24 1e3c b9a6 f1ba

bias f4 [23]
-2.761959 -0.31140432 0.3110296 0.34086442 0.05683661 0.23038493 -0.28386366 0.40368497
0.22141184 0.0010817412 -0.38639483 0.5425302 0.3698875 -0.35092926 0.1622893 -0.4163149
-0.395323 0.049826585 0.08257587 0.51399225 0.49508116 0.5050853 -0.45773554
00000000: f0c3 30c0 6370 9fbe 463f 9f3e c885 ae3e
00000010: 81cd 683d 07ea 6b3e 9456 91be ccaf ce3e
00000020: c9b9 623e 36c9 8d3a 8bd5 c5be 42e3 0a3f
00000030: e561 bd3e 00ad b3be 2b2f 263e 3a27 d5be
00000040: c767 cabe f616 4c3d 8a1d a93d ff94 033f
00000050: 477b fd3e 454d 013f 505c eabe
